lstm_station_prediction.pth (torch, 149471 bytes, 11 tensors)

embedding.weight f4 [20, 64]
-0.7784799 -0.1254897 -1.106781 0.44718215 1.7909927 -0.6560817 0.35952768 1.6266356
1.8075346 1.3487595 0.024641102 -2.2348547 0.3956952 -1.7089019 0.5257636 1.2157615
-0.3216738 -0.26089796 -0.89666384 0.93035275 0.58459336 1.0530543 -0.8004221 0.65688723
0.6149163 1.1284343 -0.43944693 0.46913338 -0.5815224 0.9903179 -0.7026151 1.8981179
0.41182247 0.4440493 0.18685134 0.11224195 0.27902788 -1.2653959 0.977429 0.43868008
-0.4459795 -0.116377674 0.87116563 0.36419123 0.87753624 -0.20074335 2.4143558 -0.6126731
1.0458579 0.072454356 -0.2554968 -0.2895453 -1.4775035 -0.73762506 3.3642335 -1.0395238
0.9434724 0.39553547 -1.9115613 -0.117207475 -0.5461078 -1.551785 0.7449925 -0.45877507
0.759201 -2.7631068 0.7701757 0.7459415 0.12838759 -1.9757367 -0.8175921 -1.2046782
-1.1979517 -1.5495192 1.1042315 -0.22193137 -0.2418075 0.7418416 -0.74698025 0.50088686
0.066479646 -0.55353904 -0.9307805 -0.6671571 0.48271638 -0.8127672 -0.0770055 0.70834243
-0.49663696 -0.51484036 -1.1890198 0.7232017 1.4843215 0.8864793 -0.45090345 -1.097978
0.9165824 -0.19049942 -0.18005763 -0.027087089 1.0944663 -0.950482 2.4330404 -1.3402529
0.4783998 0.34214535 -0.529063 0.47721782 0.7544988 -0.19190559 -0.81929743 -0.8534699
0.1005707 -0.62082285 1.5996971 1.1187688 -1.0592571 0.92273676 1.0632639 -0.6993089
-0.43913522 0.07211664 -0.36481974 0.7600765 1.3066405 0.8256223 0.13010305 -0.7103921
-0.5412905 -0.30067322 0.58132774 1.1799742 -0.16292198 -0.072290614 -0.7469104 1.5204742
-1.2082021 0.2957133 0.9501531 -0.10356617 -0.20519629 0.8033766 -0.91079265 -0.10709275
-1.4456592 -1.4002279 1.2846761 -0.533169 -1.0102457 0.9552702 -0.22198617 -0.17761794
0.77469784 -0.4714875 -1.5883025 1.617368 -0.32128212 0.0667506 -0.51595354 0.3577928
0.7988771 0.35203576 0.9421122 0.85222954 -0.6976313 -1.2786007 0.57562226 -0.04715699
0.012896176 1.7094228 0.83900225 -0.7510845 1.3250675 0.1650034 -0.24710895 -0.7145021
0.040091723 -0.002775227 -0.24320662 -0.32749 -0.6924237 -0.89623404 2.4411695 0.0056171264
-0.05566195 0.6075805 -0.45493045 0.6665435 -0.8023602 -0.047372 -0.77923685 0.32981122
-2.6394815 0.15577137 0.6005773 -1.1092683 1.3364321 -0.58174545 2.0035856 0.23552997
-1.0289623 0.044948135 0.546877 0.6239379 -0.3078547 0.58057386 0.3265654 0.5606082
1.3385469 -0.4099705 0.41542572 -0.9176366 -1.1892519 0.10387576 -0.1077525 -1.498752
1.512981 1.2772787 -0.49074984 0.103487 1.0331638 -0.37508184 -0.10482297 0.15016238
-0.9831627 -0.3880495 0.5973706 -0.106128216 -1.6479983 0.51936454 -0.9870467 1.5400844
-0.4065024 0.7865609 -0.6640935 0.6488865 -1.4282676 -2.0225341 -0.6519063 -0.97762686
0.41709778 -0.17643695 1.1238453 0.8723735 0.10935384 -0.49904144 0.36029992 -1.0270671
-0.26731429 0.9739119 -0.62693334 0.4166532 1.4948673 0.58195466 0.14330366 -1.0587177
00000000: 754a 47bf 5f80 00be 00ab 8dbf 0ff5 e43e
00000010: 403f e53f f8f4 27bf 0314 b83e 9835 d03f
00000020: 4b5d e73f 27a4 ac3f 23dc c93c dc07 0fc0
00000030: 9098 ca3e 4cbd dabf 7198 063f 139e 9b3f
00000040: 6eb2 a4be 6b94 85be c38b 65bf 992b 6e3f
00000050: e9a7 153f 7cca 863f 76e8 4cbf c329 283f
00000060: 286b 1d3f 8970 903f 30ff e0be 4032 f03e
00000070: a7de 14bf 7985 7d3f 95de 33bf 87f5 f23f
00000080: 65da d23e 6e5a e33e f555 3f3e 1cdf e53d
00000090: bedc 8e3e 7ef8 a1bf c938 7a3f ad9a e03e
000000a0: 6d57 e4be 6b57 eebd b604 5f3f 4677 ba3e
000000b0: 37a6 603f aa8f 4dbe ce84 1a40 25d8 1cbf
000000c0: acde 853f f362 943d 7ad0 82be 483f 94be
000000d0: d61e bdbf ffd4 3cbf 9a4f 5740 1e0f 85bf
000000e0: 6887 713f a083 ca3e 0aae f4bf 790a f0bd
000000f0: b9cd 0bbf e4a0 c6bf d4b7 3e3f 91e4 eabe
00000100: ff5a 423f bed6 30c0 3c2a 453f 06f6 3e3f
00000110: 0978 033e f1e4 fcbf b74d 51bf e532 9abf
00000120: 7b56 99bf a556 c6bf 7557 8d3f fa41 63be
00000130: 639c 77be 55e9 3d3f 193a 3fbf 1f3a 003f
00000140: 7b26 883d bcb4 0dbf a147 6ebf cfca 2abf
00000150: 9a26 f73e 8311 50bf 0fb5 9dbd ee55 353f
00000160: 3347 febe 94cc 03bf cd31 98bf bf23 393f
00000170: 3ffe bd3f 4ff0 623f d1dc e6be 8b8a 8cbf
00000180: 25a5 6a3f 4812 43be 0761 38be bee5 ddbc
00000190: 7917 8c3f ca52 73bf efb6 1b40 688d abbf
000001a0: d2f0 f43e ad2d af3e ac70 07bf e555 f43e
000001b0: d526 413f e682 44be 7abd 51bf 017d 5abf
000001c0: 03f8 cd3d 3fee 1ebf e0c2 cc3f d133 8f3f
000001d0: bd95 87bf 7a38 6c3f 0819 883f e805 33bf
000001e0: 55d6 e0be e4b1 933d a7c9 babe 6094 423f
000001f0: ff3f a73f fc5b 533f bc39 053e 42dc 35bf
00000200: 0492 0abf d7f1 99be e5d1 143f 6509 973f
00000210: 05d5 26be 1a0d 94bd 8535 3fbf e69e c23f
00000220: 5ea6 9abf bc67 973e 3c3d 733f 801a d4bd
00000230: fa1e 52be 17aa 4d3f b529 69bf 7253 dbbd
00000240: 5c0b b9bf ab3a b3bf 4470 a43f c37d 08bf
00000250: bb4f 81bf 968c 743f 5850 63be 7ae1 35be
00000260: 9952 463f cf66 f1be 7f4d cbbf ea05 cf3f
00000270: 177f a4be 8ab4 883d 8815 04bf 9e30 b73e
00000280: 3683 4c3f 083e b43e 442e 713f b72b 5a3f
00000290: f797 32bf 30a9 a3bf fb5b 133f b027 41bd
000002a0: 7c4a 533c 5ece da3f dac8 563f 1347 40bf
000002b0: d09b a93f a7f6 283e 210a 7dbe 9ce9 36bf
000002c0: 3837 243d 95e0 35bb 280b 79be c5ac a7be
000002d0: ae42 31bf 986f 65bf 1f3c 1c40 df0f b83b
000002e0: c9fd 63bd 658a 1b3f a5ec e8be 98a2 2a3f
000002f0: 7a67 4dbf 2409 42bd 117c 47bf 04dd a83e
00000300: 44ed 28c0 8882 1f3e 6fbf 193f 81fc 8dbf
00000310: 3510 ab3f 45ed 14bf bf3a 0040 c52e 713e
00000320: 09b5 83bf 891b 383d 2200 0c3f 65ba 1f3f
00000330: 229f 9dbe 7da0 143f 9533 a73e 0584 0f3f
00000340: 8155 ab3f a7e7 d1be aeb2 d43e 3bea 6abf
00000350: 6839 98bf d1bc d43d 58ad dcbd 1bd7 bfbf
00000360: 5da9 c13f de7d a33f 9043 fbbe fef0 d33d
00000370: b63e 843f ba0a c0be 6dad d6bd 2bc4 193e
00000380: 8db0 7bbf 6dae c6be 48ed 183f c059 d9bd
00000390: 9cf1 d2bf 13f5 043f 18af 7cbf 7c21 c53f
000003a0: 1521 d0be 0e5c 493f 0802 2abf 6d1d 263f
000003b0: 79d1 b6bf 3371 01c0 55e3 26bf c145 7abf
000003c0: d78d d53e e3ab 34be 2ada 8f3f df53 5f3f
000003d0: e8f4 df3d 5c82 ffbe 3b79 b83e ef76 83bf
000003e0: 6bdd 88be 4a52 793f b47e 20bf 9153 d53e
000003f0: d057 bf3f fbfa 143f 32be 123e 1084 87bf

lstm.weight_ih_l0 f4 [256, 64]
-0.10582877 0.06703578 -0.04362149 0.016803699 0.03859956 -0.036206815 0.060341235 -0.08153712
0.043499302 -0.00088622165 0.05634447 -0.1510384 -0.026964193 0.072308354 0.16041757 0.1793826
-0.017122952 0.05021912 -0.059151713 0.16325621 -0.09026829 -0.0029965036 -0.025170466 -0.030927008
-0.052290455 0.09816941 0.19485903 -0.06963505 -0.014448208 0.024095194 0.032299437 0.074844435
0.063444726 0.051014032 0.054157473 0.034585927 0.12920314 0.0490578 -0.0054645194 -0.07966566
0.06071524 0.04935844 0.17582053 -0.15612818 -0.046590127 -0.048251696 0.13004793 -0.05757351
0.161709 0.04988051 0.09798986 0.12901226 -0.034948856 0.03160502 0.04393853 0.10907339
-0.059689242 0.074218765 -0.0089002615 0.06680103 -0.048656523 -0.20860675 0.012922275 0.020548116
-0.001347471 0.024654046 0.041058514 0.07450908 -0.10664544 -0.11463845 -0.10843298 -0.19244961
0.026200509 -0.123343945 0.0037476022 0.05970458 -0.06965565 0.0033276689 0.025291843 -0.14352152
-0.061993968 -0.035451483 0.0069999616 -0.10873974 -0.010754616 -0.009811271 -0.10010303 0.08397978
-0.1068776 -0.026446717 0.0019846903 0.057957083 0.1793883 -0.012498896 0.094924964 -0.044591203
-0.11522746 -0.08972049 0.056686234 -0.044707954 0.0022105249 0.11341536 0.15135777 -0.044003848
0.0814737 -0.072495095 -0.086748585 0.067421205 -0.16812655 0.14235969 -0.084646195 0.013580028
0.010022691 0.046646703 -0.120360516 0.011494348 -0.12306365 0.16996597 -0.0008818248 -0.053128954
0.046264376 -0.016507233 -0.052542575 -0.013925231 0.1869039 0.06808121 -0.01788731 -0.12577023
-0.13482106 -0.103938095 0.0017013189 -0.017775185 -0.19275586 -0.16665375 -0.10854099 0.02328067
0.06867855 -0.008246755 -0.04852848 0.16488238 -0.161569 -0.02416866 -0.029491039 -0.0050370386
-0.011031773 -0.0078435335 0.17324896 -0.08713658 -0.04588795 0.05499045 0.033947892 0.03330356
-0.029452665 -0.061760906 0.051924743 0.036222555 0.074016795 0.041371338 -0.02462225 -0.020874122
-0.03632911 0.10213176 -0.0033340685 0.026834732 0.00706456 -0.062345173 -0.02084028 -0.14327833
0.03065025 0.054457083 -0.009821257 0.110822804 0.06500158 -0.09395233 -0.13142452 -0.06927326
0.12022174 0.0078027276 -0.03660228 -0.049568303 -0.036167827 -0.11036173 -0.005016084 0.1194975
-0.07706087 -0.04280256 0.008064819 0.18169963 -0.038927734 -0.06418318 -0.15335387 0.07894477
0.0017517514 -0.049245276 -0.014357238 -0.096845604 0.10538836 -0.16219372 0.11751821 0.014522109
-0.0223462 -0.023606343 -0.085386075 -0.04048742 0.044349182 -0.03572635 0.14498623 0.0037764348
0.12327025 -0.029183928 0.13283448 -0.22231287 -0.013523443 0.0653976 -0.16125643 0.1078109
-0.015434333 0.016838226 -0.04600353 0.022323448 0.06933528 0.06062855 0.073685005 0.07873457
-0.09125728 -0.04932741 -0.00058293925 0.075779185 0.028065195 0.032456685 -0.023241134 0.1463021
-0.009067971 -0.020972798 -0.12027201 0.036114138 -0.07838007 -0.16508798 -0.08670141 -0.17579718
0.013375735 -0.060567547 -0.014917785 -0.08261021 -0.04861617 0.0661293 -0.06551697 -0.17866327
0.039263528 -0.007412652 0.076542445 -0.07984972 0.1161494 0.0034121203 -0.13183057 -0.074184485
00000000: c1bc d8bd 0e4a 893d 73ac 32bd e9a7 893c
00000010: 921a 1e3d 994d 14bd 5f28 773d effc a6bd
00000020: 532c 323d 5451 68ba 75c9 663d cfa9 1abe
00000030: 03e4 dcbc 6716 943d 8144 243e 13b0 373e
00000040: 6f45 8cbc 90b2 4d3d 1149 72bd a32c 273e
00000050: 95de b8bd fd60 44bb 4b32 cebc a35a fdbc
00000060: 842e 56bd 0b0d c93d 2089 473e d29c 8ebd
00000070: 2db8 6cbc 4963 c53c 6a4c 043d 0a48 993d
00000080: 4fef 813d 17f4 503d 3ad4 5d3d f9a9 0d3d
00000090: d44d 043e d5f0 483d b60f b3bb c027 a3bd
000000a0: 8bb0 783d 132c 4a3d 4c0a 343e 11e0 1fbe
000000b0: 4ad5 3ebd 92a3 45bd 492b 053e 33d2 6bbd
000000c0: 0b97 253e 814f 4c3d e8ae c83d ca1b 043e
000000d0: 8826 0fbd 4474 013d e3f8 333d df61 df3d
000000e0: b57c 74bd 0200 983d 67d2 11bc face 883d
000000f0: 104c 47bd 029d 55be f3b7 533c 8654 a83c
00000100: a09d b0ba 48f7 c93c f92c 283d 3798 983d
00000110: ed68 dabd 90c7 eabd 1c12 debd 8311 45be
00000120: 73a2 d63c c09b fcbd 559a 753b ca8c 743d
00000130: 9fa7 8ebd 0515 5a3b d730 cf3c 4ef7 12be
00000140: 63ed 7dbd 9335 11bd ef5f e53b f1b2 debd
00000150: 2134 30bc 74bf 20bc d102 cdbd 97fd ab3d
00000160: a5e2 dabd c9a6 d8bc 9411 023b 6864 6d3d
00000170: 91b1 373e 2bc8 4cbc 0568 c23d 44a5 36bd
00000180: 60fc ebbd 60bf b7bd d32f 683d b01f 37bd
00000190: 74de 103b 5046 e83d 88fd 1a3e 613d 34bd
000001a0: afdb a63d 4f78 94bd 3ea9 b1bd 2114 8a3d
000001b0: 5e29 2cbe bdc6 113e fc5a adbd c47e 5e3c
000001c0: 3736 243c 9d10 3f3d 937f f6bd ca52 3c3c
000001d0: cc08 fcbd 8f0b 2e3e 432a 67ba bf9d 59bd
000001e0: b77f 3d3d 2d3a 87bc e236 57bd a726 64bc
000001f0: bc63 3f3e 296e 8b3d 6888 92bc e9c9 00be
00000200: 880e 0abe 7fdd d4bd cafe de3a 449d 91bc
00000210: cb61 45be 48a7 2abe bd4a debd 1bb7 be3c
00000220: 57a7 8c3d 661d 07bc cdc5 46bd edd6 283e
00000230: 5872 25be 5bfd c5bc 3197 f1bc be0d a5bb
00000240: 9cbe 34bc 2a82 00bc 2d68 313e aa74 b2bd
00000250: 01f5 3bbd ab3d 613d f20c 0b3d 5069 083d
00000260: b746 f1bc 01f9 7cbd 0aaf 543d 1a5e 143d
00000270: 1e96 973d fe74 293d 9ab4 c9bc 3500 abbc
00000280: d5cd 14bd 752a d13d 6380 5abb 83d4 db3c
00000290: d37d e73b a75d 7fbd 3cb9 aabc 8eb7 12be
000002a0: 3c16 fb3c 640e 5f3d 56e9 20bc 11f7 e23d
000002b0: 8c1f 853d 146a c0bd 2694 06be 24df 8dbd
000002c0: d136 f63d 06ae ff3b 46ec 15bd 2208 4bbd
000002d0: b724 14bd 5505 e2bd f65d a4bb 1bbb f43d
000002e0: 17d2 9dbd bd51 2fbd 4d22 043c 780f 3a3e
000002f0: b072 1fbd 7972 83bd cc08 1dbe ccad a13d
00000300: 069b e53a 6ab5 49bd 9f3a 6bbc fd56 c6bd
00000310: dad5 d73d 1c16 26be 63ad f03d 24ee 6d3c
00000320: 610f b7bc 1762 c1bc e5de aebd 23d6 25bd
00000330: 7da7 353d cb55 12bd 4577 143e 107e 773b
00000340: 1d75 fc3d 2213 efbc c305 083e fca5 63be
00000350: 6e91 5dbc 2def 853d 6820 25be f6cb dc3d
00000360: 49e0 7cbc 52f0 893c 336e 3cbd aadf b63c
00000370: a8ff 8d3d a455 783d 2ae8 963d 973f a13d
00000380: 19e5 babd 8a0b 4abd 64d0 18ba 1e32 9b3d
00000390: fbe8 e53c 4df1 043d 3164 bebc 38d0 153e
000003a0: d491 14bc 25cf abbc 2c51 f6bd 6bec 133d
000003b0: bb85 a0bd d30c 29be 8290 b1bd 2d04 34be
000003c0: e625 5b3c ad15 78bd ba69 74bc 8b2f a9bd
000003d0: c021 47bd cc6e 873d c32d 86bd 81f3 36be
000003e0: cbd2 203d d5e5 f2bb 49c2 9c3d 4088 a3bd
000003f0: bddf ed3d e19d 5f3b 98fe 06be 09ee 97bd

lstm.weight_hh_l0 f4 [256, 64]
-0.030605966 0.111033514 0.10982116 0.031348407 -0.21407485 -0.008372294 0.09773758 -0.030416777
-0.09607321 0.030037634 0.15494925 -0.07825176 -0.0757521 -0.044203114 0.056232166 0.04823517
-0.039885547 0.06212214 0.025002241 -0.07035428 0.06292611 -0.042921882 -0.024181219 0.115996584
0.049764484 -0.08416389 0.0034935349 0.0150484005 0.16366962 -0.010674627 0.08090816 0.029162778
0.044297528 0.05961164 -0.03327614 0.16426507 -0.07585281 -0.057635568 0.012975349 -0.11006673
-0.07598988 -0.03487577 -0.09502822 -0.14104557 0.05778379 0.13121006 -0.20392522 -0.101464584
0.18918782 0.045343578 -0.14676934 0.068256885 -0.0677067 -0.0610093 -0.13067052 0.009461762
0.07083257 -0.07701548 0.15733622 -0.08600716 0.1078286 0.071896955 0.19211452 -0.13040574
0.12371134 0.042642064 0.018696968 0.02341443 0.10061623 0.037784863 -0.09013072 -0.14786898
-0.029685685 -0.10491941 -0.008533648 -0.03638866 0.050132897 -0.24127969 0.18885705 -0.06914648
-0.10969913 -0.05999438 0.015589271 0.19135833 0.18490124 -0.16432767 0.033034224 -0.1558272
0.06094385 0.015924312 -0.13119338 -0.17875034 0.047022995 0.07803915 0.02647529 0.29005435
-0.08258746 0.11322451 0.07232249 0.16541217 0.020028742 -0.11282971 0.2262799 0.12296426
-0.2714177 0.00745667 0.10446493 -0.10004107 0.09072851 -0.11976166 -0.117346056 0.20932023
0.17260736 0.19188793 0.051759973 -0.00081133563 -0.16887392 0.11018711 0.0069792126 -0.01885105
0.16655426 0.14546041 -0.005165264 0.2153592 -0.054917943 0.068683885 0.14041145 -0.045681775
0.033292066 -0.0330244 0.15371944 -0.055053115 -0.03368677 0.08366299 0.032702524 0.08472105
0.04906557 -0.06300515 -0.22705796 0.014754495 -0.05869291 -0.0322706 0.1326383 -0.124257475
0.082398795 -0.13179387 0.15543683 0.04306566 0.022389296 -0.118518546 0.0188581 -0.11509212
-0.09291858 -0.046673857 -0.18780442 0.1886694 -0.015108318 0.048186194 0.097509615 -0.029861208
0.04238656 0.029942429 -0.002711764 0.042409886 -0.079158515 0.033490572 0.018110482 0.19927336
-0.011678023 -0.066964224 -0.035779722 0.0796161 -0.047992986 0.021356616 0.016624326 0.11263703
-0.14510901 -0.032290343 -0.1794628 0.119590074 -0.13368858 -0.12412976 0.07652041 -0.04855173
0.1030426 0.007222032 -0.016445752 -0.052717105 -0.035966497 0.017902363 0.10512203 0.13162531
-0.0025115113 0.08074601 -0.02916067 0.013964294 0.03576349 0.030776476 -0.061351392 0.042428385
-0.064471 0.0014217338 0.1499559 0.027265824 -0.11265133 0.00021990744 0.109278575 -0.12110686
0.035506804 0.003919591 0.13919723 0.0006609151 -0.047389403 -0.17385966 0.05954309 -0.030658683
-0.0073908106 0.030071517 -0.09365358 -0.05023536 -0.046124067 0.012494915 -0.15919639 0.13599962
0.042197034 -0.03637908 0.15746686 0.1253353 -0.015737107 0.086616546 -0.062045395 0.15713786
-0.18632875 -0.0331744 0.060421646 -0.106530376 -0.027150339 4.317527e-05 -0.16858797 0.074143745
0.069212146 -0.059331086 0.09505436 0.028299188 -0.05517155 0.12596868 -0.1439168 -0.12511429
0.02766723 0.102249935 -0.02344901 0.027229413 0.18313019 -0.15415607 -0.11147509 -0.035525925
00000000: 5db9 fabc 8a65 e33d ebe9 e03d 3067 003d
00000010: 7036 5bbe f22b 09bc a42a c83d 9b2c f9bc
00000020: 08c2 c4bd 7c11 f63c 04ab 1e3e 7542 a0bd
00000030: eb23 9bbd 530e 35bd b353 663d 3e92 453d
00000040: 075f 23bd c973 7e3d 80d1 cc3c e815 90bd
00000050: 68df 803d dbce 2fbd b117 c6bc 9e8f ed3d
00000060: d8d5 4b3d 1e5e acbd caf3 643b 918d 763c
00000070: 0299 273e a1e4 2ebc 2db3 a53d c7e6 ee3c
00000080: 5371 353d 562b 743d 904c 08bd 1a35 283e
00000090: b858 9bbd 4613 6cbd 8f96 543c aa6a e1bd
000000a0: 95a0 9bbd e5d9 0ebd 289e c2bd 406e 10be
000000b0: b2ae 6c3d ee5b 063e c6d1 50be aacc cfbd
000000c0: 74ba 413e 30ba 393d b44a 16be 44ca 8b3d
000000d0: cfa9 8abd e3e4 79bd 7ece 05be 8205 1b3c
000000e0: ab10 913d 4bba 9dbd bf1c 213e 8624 b0bd
000000f0: 3ed5 dc3d b63e 933d abb9 443e 1589 05be
00000100: 5f5c fd3d 72a9 2e3d 622a 993c 9ecf bf3c
00000110: e20f ce3d 4dc4 1a3d 7496 b8bd f76a 17be
00000120: 652f f3bc fddf d6bd b7d0 0bbc 470c 15bd
00000130: 2758 4d3d 0612 77be be63 413e ab9c 8dbd
00000140: f0a9 e0bd abbc 75bd 246a 7f3c 70f3 433e
00000150: c056 3d3e 8345 28be e54e 073d 2a91 1fbe
00000160: 42a0 793d b473 823c 8f57 06be 540a 37be
00000170: 2f9b 403d fdd2 9f3d b5e2 d83c 0182 943e
00000180: 9d23 a9bd 40e2 e73d d01d 943d cf61 293e
00000190: 5113 a43c 4313 e7bd ebb5 673e b0d4 fb3d
000001a0: 43f7 8abe 1557 f43b b6f1 d53d 55e2 ccbd
000001b0: decf b93d 9a45 f5bd 2153 f0bd 0b58 563e
000001c0: fcbf 303e 457e 443e 4402 543d d0af 54ba
000001d0: 49ed 2cbe c8a9 e13d e1b1 e43b 846d 9abc
000001e0: 338d 2a3e 93f3 143e 6041 a9bb 1f87 5c3e
000001f0: a3f1 60bd 23aa 8c3d 05c8 0f3e d01c 3bbd
00000200: 435d 083d 9844 07bd a168 1d3e 607f 61bd
00000210: 23fb 09bd 8057 ab3d 15f3 053d 3b82 ad3d
00000220: fbf8 483d d808 81bd e281 68be d6bc 713c
00000230: fa67 70bd 2d2e 04bd 56d2 073e b47a febd
00000240: b3c0 a83d f9f4 06be d52a 1f3e 9e65 303d
00000250: c269 b73c dab9 f2bd 4d7c 9a3c 6bb5 ebbd
00000260: 194c bebd 162d 3fbd cd4f 40be 8d32 413e
00000270: e188 77bc e35e 453d 1fb3 c73d 7e9f f4bc
00000280: 889d 2d3d d349 f53c dab7 31bb fdb5 2d3d
00000290: dc1d a2bd 692d 093d 6f5c 943c 510e 4c3e
000002a0: 2e55 3fbc 8a24 89bd c28d 12bd c40d a33d
000002b0: 4b94 44bd 12f4 ae3c bd2f 883c 3eae e63d
000002c0: 7597 14be e142 04bd 19c5 37be a4eb f43d
000002d0: a9e5 08be be37 febd bcb6 9c3d 2ede 46bd
000002e0: 0008 d33d cca6 ec3b 3eb9 86bc e4ed 57bd
000002f0: 9b51 13bd faa7 923c 384a d73d c9c8 063e
00000300: 2b98 24bb 2a5e a53d 5be2 eebc 7fca 643c
00000310: bd7c 123d f31e fc3c 994b 7bbd 63c9 2d3d
00000320: 5f09 84bd 7859 ba3a 0a8e 193e 945c df3c
00000330: beb5 e6bd f496 6639 72cd df3d e006 f8bd
00000340: 956f 113d ea6f 803b b889 0e3e 4341 2d3a
00000350: 641b 42bd 4408 32be 75e3 733d eb27 fbbc
00000360: 9d2e f2bb 8b58 f63c 73cd bfbd 98c3 4dbd
00000370: 97ec 3cbd 79b7 4c3c 6104 23be 7c43 0b3e
00000380: ccd6 2c3d 3b02 15bd fe3e 213e e657 003e
00000390: 1beb 80bc 0464 b13d 5023 7ebd bfe8 203e
000003a0: f7cc 3ebe e1e1 07bd b07c 773d 992c dabd
000003b0: 636a debc 1817 3538 53a2 2cbe add8 973d
000003c0: 19bf 8d3d 2705 73bd dcab c23d b3d3 e73c
000003d0: 90fb 61bd effd 003e ed5e 13be f61d 00be
000003e0: 63a6 e23c 6a68 d13d 2318 c0bc 3810 df3c
000003f0: 7b86 3b3e 17db 1dbe 0d4d e4bd a283 11bd

lstm.bias_ih_l0 f4 [256]
0.004656657 -0.0830805 0.05729528 0.029930595 -0.058170408 0.016599748 0.105250366 0.07903989
-0.15550484 0.047342774 -0.14864363 -0.113270536 0.08248362 0.05906543 -0.025216188 0.01642367
-0.011097449 -0.143921 -0.095808 0.13769959 0.2251885 0.21280083 0.068111286 0.20492122
0.06289624 0.08888306 0.23846355 0.16309993 0.25871015 0.06489157 0.19031473 0.27443233
0.18741082 0.19592361 0.08111297 0.18173647 0.013295521 0.20386823 0.17652696 0.14279757
0.05754284 -0.03561748 0.012090519 0.2248309 0.088924006 0.1829954 0.09752534 0.14887944
0.18821503 -0.03178388 0.30419174 0.13949032 0.28156012 0.16182272 0.1330311 0.13736306
0.090375304 0.039661676 0.09487228 0.1872169 0.2954835 0.20847501 0.16839686 0.21489231
0.023628779 0.17291845 0.029652398 0.07528054 0.104254976 -0.07926351 -0.07848806 0.030952396
0.116830304 -0.017522492 0.06013265 -0.012157953 0.036179468 -0.121633984 -0.02235745 0.17783436
-0.018295988 0.056874275 0.13539921 0.010600847 0.23434696 -0.09254818 -0.03584489 -0.025076266
0.060734447 0.053889073 0.1151654 0.12779228 0.18456286 -0.022337534 -0.050179053 -0.089038976
-0.01414649 0.11964114 0.08989522 0.1904289 0.16195533 0.14808412 0.018526869 0.14806688
0.07622115 -0.012604478 0.050750084 0.10731052 0.17096335 0.05839354 0.1116489 0.059699122
-0.029636085 0.02388749 0.03437902 -0.06193142 0.2199096 0.009330334 0.035792135 0.04744274
0.025890544 0.07245769 -0.05375061 -0.09076304 0.09013201 0.035084542 0.16251907 0.10621486
-0.05570694 0.07608987 -0.029134648 -0.027759757 -0.034919627 0.0023763028 0.062247563 0.1558212
-0.18837151 -0.06698656 0.11066275 -0.114870034 -0.14012247 0.022900332 0.10428207 -0.07454235
0.1315216 0.089084685 -0.079589374 -0.02917559 -0.071471505 0.08265247 0.014426651 -0.10207821
0.117873125 0.09155736 -0.051947407 -0.02443304 -0.073267065 0.074236326 0.09753046 -0.03731708
-0.07623199 -0.046723496 -0.10828937 0.030334074 0.16026747 -0.03772757 -0.011293786 0.02179038
0.13288906 -0.023451341 -0.02311322 -0.017487854 -0.00981512 0.03780892 0.09862333 -0.14491378
-0.09015153 -0.008401054 0.09046079 -0.027809797 0.09208502 0.0287145 0.045195688 -0.039889246
0.037707254 0.108975485 -0.05784341 0.01643509 0.035198767 0.08723191 -0.064579464 0.22291929
0.06896865 -0.10758379 0.21167633 0.15359178 -0.024850842 0.0018548237 -0.027349623 -0.02492813
0.09106768 0.18694367 -0.066440344 0.22761278 0.0392671 0.13097772 0.043238007 0.094126746
-0.010471043 0.0621953 -0.06119203 -0.039846938 0.20448872 0.11429204 0.06050897 -0.025267478
-0.003189046 0.19530818 -0.003965433 0.021932578 0.1149739 0.033922076 0.1722073 0.16654953
0.29091984 0.19027656 0.15462239 0.22443812 0.19800979 0.17246109 0.16559884 0.043547966
0.20391272 0.1530639 -0.07542593 0.23465817 0.15255332 0.08294762 0.2513764 -0.07404928
0.25439063 -0.018642422 0.25126967 0.12417065 0.29043236 0.3032556 0.119297564 -0.0052799797
0.15099645 0.057575587 0.18481274 0.17621261 0.21565051 0.15503588 0.0069963513 0.2703485
00000000: df96 983b 1c26 aabd 75ae 6a3d 0231 f53c
00000010: 1844 6ebd 32fc 873c 818d d73d aadf a13d
00000020: a93c 1fbe 7fea 413d 0936 18be 62fa e7bd
00000030: 2ced a83d 98ee 713d 2e92 cebc ef8a 863c
00000040: 13d2 35bc 0760 13be fc36 c4bd 1f01 0d3e
00000050: d097 663e 76e8 593e ee7d 8b3d ded6 513e
00000060: becf 803d 5208 b63d ca2f 743e ab03 273e
00000070: a875 843e dfe5 843d dde1 423e 6582 8c3e
00000080: 9fe8 3f3e 33a0 483e 8f1e a63d 2019 3a3e
00000090: 75d5 593c d5c2 503e 7cc3 343e 8739 123e
000000a0: 0ab2 6b3d a2e3 11bd 5017 463c 123a 663e
000000b0: ca1d b63d 2563 3b3e 5ebb c73d da73 183e
000000c0: 71bb 403e d02f 02bd 05bf 9b3e 8dd6 0e3e
000000d0: a628 903e dbb4 253e 4e39 083e e7a8 0c3e
000000e0: b016 b93d 4874 223d 664c c23d c9b5 3f3e
000000f0: 9d49 973e 797a 553e 3a70 2c3e bb0c 5c3e
00000100: 2491 c13c 8911 313e 96e9 f23c af2c 9a3d
00000110: a283 d53d e854 a2bd 59be a0bd e18f fd3c
00000120: ba44 ef3d 548b 8fbc a74d 763d 2732 47bc
00000130: ec30 143d 3d1b f9bd f926 b7bc 361a 363e
00000140: 78e1 95bc 00f5 683d 17a6 0a3e 2daf 2d3c
00000150: a6f8 6f3e e689 bdbd 17d2 12bd be6c cdbc
00000160: afc4 783d caba 5c3d d6db eb3d fbdb 023e
00000170: 0cfe 3c3e 34fd b6bc 8d88 4dbd 115a b6bd
00000180: aec6 67bc 6a06 f53d fc1a b83d cbff 423e
00000190: 9ed7 253e 5da3 173e a9c5 973c d89e 173e
000001a0: d619 9c3d 0383 4ebc 52df 4f3d 9ec5 db3d
000001b0: 0411 2f3e 112e 6f3d 2ea8 e43d 1187 743d
000001c0: 60c7 f2bc b3af c33c 04d1 0c3d cdab 7dbd
000001d0: fb2f 613e 42de 183c c69a 123d 5253 423d
000001e0: 6818 d43c b364 943d 9a29 5cbd f9e1 b9bd
000001f0: 2297 b83d cfb4 0f3d 666b 263e 2d87 d93d
00000200: f62c 64bd 01d5 9b3d c9ab eebc 6e68 e3bc
00000210: e207 0fbd bfbb 1b3b 4df7 7e3d 988f 1f3e
00000220: 76e4 40be 4030 89bd 27a3 e23d fb40 ebbd
00000230: 447c 0fbe 7a99 bb3c d791 d53d a9a9 98bd
00000240: 99ad 063e 0872 b63d c1ff a2bd a601 efbc
00000250: a75f 92bd b345 a93d c35d 6c3c 610e d1bd
00000260: 7767 f13d 6d82 bb3d cec6 54bd cc27 c8bc
00000270: 0b0d 96bd 3709 983d 0dbe c73d cbd9 18bd
00000280: 841f 9cbd 2361 3fbd d1c6 ddbd 2a7f f83c
00000290: 281d 243e 3988 1abd 9209 39bc bd81 b23c
000002a0: 1214 083e 071d c0bc f057 bdbc b042 8fbc
000002b0: 99cf 20bc 87dd 1a3d 07fb c93d 4764 14be
000002c0: 5ea1 b8bd 93a4 09bc 8243 b93d 5fd1 e3bc
000002d0: 1297 bc3d ac3a eb3c 1d1f 393d e862 23bd
000002e0: ec72 1a3d 8a2e df3d 36ed 6cbd e2a2 863c
000002f0: 952c 103d a5a6 b23d 3d42 84bd f444 643e
00000300: 703f 8d3d e454 dcbd aec1 583e 2a47 1d3e
00000310: fe93 cbbc 8e1d f33a 510c e0bc 1436 ccbc
00000320: b181 ba3d 296e 3f3e e011 88bd 5313 693e
00000330: 8ad6 203d 061f 063e 561a 313d 86c5 c03d
00000340: bd8e 2bbc 80c0 7e3d 7ea4 7abd 8b36 23bd
00000350: 7e65 513e f211 ea3d 41d8 773d befd cebc
00000360: 50ff 50bb defe 473e 77f0 81bb f3ab b33c
00000370: 7077 eb3d e0f1 0a3d 1c57 303e f68b 2a3e
00000380: 72f3 943e dcd7 423e 5555 1e3e 1bd3 653e
00000390: 14c3 4a3e a499 303e be92 293e 5a5f 323d
000003a0: 7fce 503e c8bc 1c3e e978 9abd 3b4a 703e
000003b0: f036 1c3e 71e0 a93d 68b4 803e 26a7 97bd
000003c0: 7d3f 823e feb7 98bc 6ba6 803e 2f4d fe3d
000003d0: 8db3 943e 5144 9b3e 4852 f43d ae03 adbb
000003e0: d09e 1a3e 61d4 6b3d 8d3f 3d3e 1471 343e
000003f0: 7dd3 5c3e bac1 1e3e a641 e53b 1e6b 8a3e

lstm.bias_hh_l0 f4 [256]
0.06739181 -0.12346635 -0.08736229 -0.10328415 0.0323549 -0.15724917 0.053370472 -0.112108305
-0.016168712 -0.112196095 -0.1023762 0.004146261 -0.08562224 0.06369619 -0.1179109 0.018223988
0.052806683 -0.029482653 0.059782106 0.12803908 0.21006808 0.2633963 0.23803121 0.18446451
0.06596031 0.15066028 0.23717459 0.14018975 0.2250195 -0.018407658 0.030007234 0.29604012
0.23236644 0.17183425 -0.017933255 0.04518631 0.23279674 0.23761833 0.2220398 0.12410035
0.13211282 0.05034159 -0.05797967 0.25500208 0.13476422 0.115677334 0.0785982 0.022587284
0.2034414 0.1583875 0.133263 0.0671806 0.1197923 0.19568549 0.23781064 -0.05852194
0.15972714 -0.033322148 0.08546278 0.118057325 0.206942 0.19407146 0.13690579 0.07443754
0.08803008 0.10416962 0.062048078 0.015890062 0.01778257 -0.08468895 -0.081115134 0.047836185
0.13401891 0.08442156 -0.062477358 -0.1127891 0.08522909 0.117414646 0.14798453 0.044724446
-0.020686928 -0.022174332 0.04373546 0.13232128 0.03615401 -0.07843249 -0.022576312 0.12434075
0.09508717 0.06933227 -0.12697943 -0.015456185 0.046073325 0.0016325864 0.16855419 -0.0059994315
0.19674042 0.055112705 -0.04537885 0.14400876 -0.00367524 0.12240988 0.035609476 0.04493063
0.12616472 0.06202403 -0.08296187 0.061413117 -0.06590162 0.1727471 0.029332062 -0.04293303
0.15183082 -0.066369854 0.069927625 0.07953961 0.12245526 0.07850175 -0.0024860108 -0.017580697
0.030501246 0.112485684 -0.08639707 -0.019830324 -0.041783355 0.070840135 0.13796726 0.11633227
0.042877614 0.030713998 -0.060585294 -0.041188266 -0.07944658 -0.035038214 -0.10195496 0.16321531
-0.07784856 -0.16509552 0.08539017 -0.068250455 -0.14617008 0.08830669 -0.057893846 0.02380694
0.005147269 0.12737836 0.06991903 -0.040359244 -0.0320326 -0.012522548 -0.109877296 0.1256847
0.028333863 0.0043398845 -0.05328892 0.14767967 0.104067095 0.059418887 0.122290246 0.12730148
-0.08615664 0.1089217 0.0018173035 0.13276088 0.18687335 0.110468544 0.056928318 -0.04734785
0.09527064 -0.054247983 -0.06832802 0.12124615 0.03970021 0.16129974 0.09786821 -0.067265965
-0.0562895 -0.12079924 0.06805606 -0.03848762 0.062840745 -0.02718167 -0.11052238 -0.10594271
-0.15722556 0.061985135 0.03281304 -0.051958162 0.12956429 0.011860247 -0.109836034 0.10453054
0.099196434 0.061095387 0.15515251 0.04182925 -0.0064674607 0.1585427 0.107467264 0.03559863
0.124962494 0.04892113 -0.017250411 0.049873583 0.020637536 0.10796741 0.010635126 0.18305327
-0.0692213 -0.06806998 0.14901316 0.100959726 0.14263438 0.1830216 0.062151674 -0.024780735
0.025038263 0.15535812 0.03139721 0.12534036 0.14519174 0.17040569 0.07632232 0.22358862
0.21193169 0.1399391 0.007542771 0.037120257 0.031280857 0.23941422 0.20585409 0.20825788
0.21771814 0.024722468 0.0274788 0.09174849 0.25278246 0.057833508 0.17119774 0.08321466
0.33312616 0.12557323 0.10966675 0.025227394 0.23560143 0.19706827 0.07933234 0.115934625
0.19955698 0.006486259 0.20043218 0.18321323 0.31001145 0.16904739 0.17941448 0.06306344
00000000: b804 8a3d eddb fcbd 00eb b2bd a486 d3bd
00000010: 9286 043d ed05 21be ff9a 5a3d 0a99 e5bd
00000020: 3f74 84bc 11c7 e5bd 9daa d1bd 5cdd 873b
00000030: b75a afbd 2673 823d 457b f1bd 794a 953c
00000040: d24b 583d 9b85 f1bc 15de 743d ad1c 033e
00000050: 161c 573e e1db 863e 74be 733e 44e4 3c3e
00000060: 3316 873d b046 1a3e e5dd 723e e78d 0f3e
00000070: 836b 663e a8cb 96bc bbd1 f53c 9292 973e
00000080: 78f1 6d3e 51f5 2f3e c3e8 92bc 4815 393d
00000090: 4562 6e3e 3852 733e 675e 633e 5328 fe3d
000000a0: 9548 073e fc32 4e3d 177c 6dbd a28f 823e
000000b0: a2ff 093e 3de8 ec3d 18f8 a03d f808 b93c
000000c0: f152 503e 5530 223e 1976 083e fb95 893d
000000d0: aa55 f53d c761 483e a284 733e b4b4 6fbd
000000e0: 838f 233e ce7c 08bd 1c07 af3d 0ac8 f13d
000000f0: 9be8 533e abba 463e 0831 0c3e b572 983d
00000100: 1d49 b43d e256 d53d 2026 7e3d e02b 823c
00000110: c1ac 913c 6671 adbd b11f a6bd e0ef 433d
00000120: 413c 093e 36e5 ac3d 42e8 7fbd f9fd e6bd
00000130: 978c ae3d 1777 f03d 4289 173e fb30 373d
00000140: a277 a9bc f2a6 b5bc f423 333d 3b7f 073e
00000150: 3a16 143d 37a1 a0bd f5f1 b8bc 5da6 fe3d
00000160: 10bd c23d 14fe 8d3d e506 02be f03b 7dbc
00000170: 62b7 3c3d 82fc d53a 7899 2c3e e196 c4bb
00000180: 5276 493e dcbd 613d 2cdf 39bd 0877 133e
00000190: 4cdc 70bb 08b2 fa3d 3edb 113d 2e09 383d
000001a0: 5331 013e e90c 7e3d eae7 a9bd 528c 7b3d
000001b0: 6ef7 86bd 9ee4 303e cb49 f03c 8bda 2fbd
000001c0: 8a79 1b3e ebec 87bd 3736 8f3d aae5 a23d
000001d0: d3c9 fa3d 87c5 a03d 57ec 22bb 6505 90bc
000001e0: c0dd f93c e55e e63d f2f0 b0bd 3473 a2bc
000001f0: 0625 2bbd a214 913d 4a47 0d3e 9d3f ee3d
00000200: 70a0 2f3d ec9b fb3c 4928 78bd 07b5 28bd
00000210: e3b4 a2bd 3b84 0fbd c3cd d0bd ea21 273e
00000220: 116f 9fbd cd0e 29be 0be1 ae3d e5c6 8bbd
00000230: 9cad 15be 23da b43d 1922 6dbd c606 c33c
00000240: 6caa a83b 796f 023e b531 8f3d bc4f 25bd
00000250: 9e34 03bd 602b 4dbc 5907 e1bd 7db3 003e
00000260: 6b1c e83c 9735 8e3b 7c45 5abd 5739 173e
00000270: 2121 d53d 3861 733d 4f73 fa3d 525b 023e
00000280: e472 b0bd 5712 df3d 9632 ee3a 78f2 073e
00000290: ba5b 3f3e 553d e23d ab2d 693d d2ef 41bd
000002a0: 411d c33d 2233 5ebd 90ef 8bbd e74f f83d
000002b0: b09c 223d c22b 253e 216f c83d bdc2 89bd
000002c0: d28f 66bd 9865 f7bd fa60 8b3d 32a5 1dbd
000002d0: a6b2 803d 18ac debc 8f59 e2bd 7ef8 d8bd
000002e0: bdff 20be 20e4 7d3d f766 063d 15d2 54bd
000002f0: 80ac 043e 7b51 423c b7f1 e0bd 1c14 d63d
00000300: 8027 cb3d 283f 7a3d 4de0 1e3e 2655 2b3d
00000310: feec d3bb 0459 223e cc17 dc3d decf 113d
00000320: 56ec ff3d 8661 483d bc50 8dbc 3e48 4c3d
00000330: 0d10 a93c 041e dd3d f43e 2e3c 5172 3b3e
00000340: e6c3 8dbd 4668 8bbd e896 183e f9c3 ce3d
00000350: bf0e 123e 046a 3b3e c192 7e3d f800 cbbc
00000360: 0b1d cd3c 3316 1f3e 5c9a 003d 3959 003e
00000370: 25ad 143e d47e 2e3e e04e 9c3d 6af4 643e
00000380: 9f04 593e 324c 0f3e 5929 f73b 690b 183d
00000390: 5b20 003d 0029 753e 6acb 523e 8e41 553e
000003a0: 81f1 5e3e c686 ca3c 381b e13c a2e6 bb3d
000003b0: b46c 813e d4e2 6c3d 764e 2f3e 736c aa3d
000003c0: 838f aa3e 4596 003e f698 e03d aea9 ce3c
000003d0: 8041 713e 44cc 493e fe78 a23d 226f ed3d
000003e0: aa58 4c3e af8a d43b 183e 4d3e 409c 3b3e
000003f0: d2b9 9e3e c21a 2d3e 6eb8 373e 6827 813d

batchnorm.weight f4 [64]
1.3591374 1.1187872 1.1930475 1.2822313 1.2640779 1.2148907 1.3687918 1.0937004
1.1958863 1.1087165 1.2392678 1.3684418 1.1787266 1.3011024 1.2201848 1.2684737
1.2168114 1.2192011 1.3032603 1.2272061 0.40413082 0.36538866 0.37641114 0.4068178
0.36915505 0.35493866 0.39381346 0.3627549 0.36707786 0.3755571 0.3904428 0.38037252
0.35957676 0.4167911 0.4192189 0.3754277 0.3996789 0.39335227 0.37114435 0.40500617
0.38086063 0.42503345 0.43474925 0.37631822 0.3696572 0.38515738 0.37232196 0.37659803
0.40511924 0.40446043 0.37584665 0.41897932 0.38125435 0.40585294 0.371042 0.4279738
0.37452194 0.4070132 0.4203334 0.3777602 0.37498584 0.40457818 0.39273983 0.3857404
00000000: 37f8 ad3f 6b34 8f3f c8b5 983f 2820 a43f
00000010: 4ecd a13f 8a81 9b3f 9234 af3f 60fe 8b3f
00000020: cd12 993f 6cea 8d3f 54a0 9e3f 1a29 af3f
00000030: 83e0 963f 868a a63f 042f 9c3f 595d a23f
00000040: 7ac0 9b3f c80e 9c3f 3cd1 a63f 1715 9d3f
00000050: 3cea ce3e 3914 bb3e f6b8 c03e 6c4a d03e
00000060: e401 bd3e 85ba b53e eba1 c93e 03bb b93e
00000070: a1f1 bb3e 0549 c03e 1ee8 c73e 30c0 c23e
00000080: 721a b83e a565 d53e dca3 d63e 0f38 c03e
00000090: b6a2 cc3e 7865 c93e a206 be3e f85c cf3e
000000a0: 2a00 c33e fc9d d93e 7497 de3e c8ac c03e
000000b0: b543 bd3e 5933 c53e fca0 be3e 75d1 c03e
000000c0: ca6b cf3e 7015 cf3e f96e c03e 7584 d63e
000000d0: c533 c33e f5cb cf3e 38f9 bd3e 621f db3e
000000e0: 57c1 bf3e 0964 d03e f035 d73e c969 c13e
000000f0: 25fe bf3e df24 cf3e 3215 c93e c47f c53e

batchnorm.bias f4 [64]
0.5243 0.28669834 0.31702057 0.5937229 0.38833678 0.34930745 0.5464974 0.33516288
0.41635075 0.185717 0.4667672 0.47692794 0.42087466 0.5331645 0.41610688 0.43176615
0.43542188 0.52519304 0.5135714 0.4469511 -0.8459706 -0.8563956 -0.85672086 -0.8464713
-0.8582695 -0.8580602 -0.8463163 -0.8562697 -0.8567422 -0.8581932 -0.8549097 -0.8442958
-0.86138767 -0.85532683 -0.84621465 -0.85718006 -0.85024965 -0.84743035 -0.8569639 -0.83525497
-0.85604614 -0.835478 -0.84066457 -0.8559029 -0.85649407 -0.8555815 -0.8580794 -0.85314006
-0.8345515 -0.8451908 -0.84809685 -0.8361329 -0.85484326 -0.8348915 -0.848341 -0.8469102
-0.84959155 -0.8565191 -0.84222907 -0.8503956 -0.851873 -0.85009384 -0.8498311 -0.8523904
00000000: 8638 063f 20ca 923e 8550 a23e 39fe 173f
00000010: 14d4 c63e 6dd8 b23e 41e7 0b3f 789a ab3e
00000020: ed2b d53e 992c 3e3e 1cfc ee3e e62f f43e
00000030: e27c d73e 787d 083f f60b d53e 7410 dd3e
00000040: 9eef de3e 0d73 063f 6a79 033f c6d6 e43e
00000050: 8791 58bf be3c 5bbf 0f52 5bbf 58b2 58bf
00000060: 8db7 5bbf d5a9 5bbf 2fa8 58bf 7e34 5bbf
00000070: 7553 5bbf 8db2 5bbf 5ddb 5abf c523 58bf
00000080: e783 5cbf b3f6 5abf 86a1 58bf 2770 5bbf
00000090: f6a9 59bf 32f1 58bf fc61 5bbf 45d3 55bf
000000a0: d725 5bbf e3e1 55bf cb35 57bf 741c 5bbf
000000b0: 3243 5bbf 6407 5bbf 17ab 5bbf 6367 5abf
000000c0: 2ba5 55bf 6d5e 58bf e01c 59bf ce0c 56bf
000000d0: 02d7 5abf 73bb 55bf e02c 59bf 1bcf 58bf
000000e0: d57e 59bf d644 5bbf 539c 57bf 87b3 59bf
000000f0: 5914 5abf c09f 59bf 888e 59bf 4236 5abf

batchnorm.running_mean f4 [64]
-0.07457133 0.056328613 -0.041686747 0.098974384 -0.032874815 0.025408799 -0.036776587 0.08827328
-0.18502203 -0.114436075 -0.078049436 -0.04705396 -0.14303938 0.03260883 -0.077726275 0.01847204
0.04393581 0.091816954 -0.065311216 -0.13540651 -0.15687959 0.058071934 -0.06832724 -0.0059479726
0.061601013 -0.05444557 0.10260051 0.12739888 -0.03325398 0.0901269 0.038168866 0.101893865
-0.16058946 0.084295996 -0.1460888 -0.022575784 0.13248745 0.15923786 -0.033240195 -0.023038074
0.23173831 0.029077763 0.090925135 0.04258716 -0.05328642 0.09109576 0.08225143 -0.289861
0.0019018336 -0.14391583 0.18714432 0.06261553 0.10829969 -0.11462332 -0.018120702 -0.13868554
-0.24534672 0.04982489 0.05742593 -0.14045323 0.09872482 0.034309953 -0.25937372 0.29437074
00000000: dab8 98bd d5b8 663d b9bf 2abd 15b3 ca3d
00000010: bea7 06bd 1d26 d03c 0ca3 16bd 9fc8 b43d
00000020: 6a76 3dbe 765d eabd 62d8 9fbd a7bb 40bd
00000030: ea78 12be d690 053d f42e 9fbd ad52 973c
00000040: 09f6 333d 870a bc3d e3c1 85bd 01a8 0abe
00000050: 0ba5 20be d6dc 6d3d 27ef 8bbd 36e7 c2bb
00000060: 5851 7c3d 5102 5fbd 3720 d23d da74 023e
00000070: 5335 08bd 7494 b83d f556 1c3d bbad d03d
00000080: 9071 24be 61a3 ac3d 4d98 15be daf0 b8bc
00000090: caaa 073e 400f 233e df26 08bd 58ba bcbc
000000a0: cf4c 6d3e 7d34 ee3c f536 ba3d e06f 2e3d
000000b0: dc42 5abd 6a90 ba3d 7073 a83d a968 94be
000000c0: f246 f93a ac5e 13be c3a2 3f3e 923c 803d
000000d0: 3acc dd3d a2bf eabd de71 94bc 9503 0ebe
000000e0: 2c3c 7bbe 2f15 4c3d 7437 6b3d f9d2 0fbe
000000f0: 3d30 ca3d 9888 0c3d a2cc 84be c3b7 963e

batchnorm.running_var f4 [64]
0.051204987 0.020738611 0.06091025 0.044294953 0.0716407 0.022473631 0.04556582 0.043612305
0.047421355 0.023109311 0.033802114 0.05325609 0.035728883 0.050286014 0.060635634 0.09794713
0.061331928 0.04435268 0.04305527 0.05083832 0.26853842 0.18386638 0.1893339 0.15524568
0.17159072 0.2555218 0.11552773 0.09270149 0.23021126 0.18388087 0.23198846 0.21465719
0.1781753 0.20839962 0.16065842 0.22748724 0.12739247 0.20475543 0.18591511 0.1746453
0.14266022 0.1852792 0.08203752 0.23712565 0.2246664 0.16753657 0.19959219 0.103951946
0.24131048 0.18183821 0.18002594 0.11307924 0.2820679 0.2541825 0.168583 0.06885131
0.15589292 0.13233441 0.13448241 0.18044513 0.21691814 0.17642684 0.13836403 0.15566887
00000000: 52bc 513d 05e4 a93c 077d 793d a06e 353d
00000010: 5cb8 923d 9f1a b83c 3aa3 3a3d d1a2 323d
00000020: e53c 423d bd4f bd3c 1674 0a3d 0f23 5a3d
00000030: 7358 123d b5f8 4d3d 125d 783d 8198 c83d
00000040: 3037 7b3d 28ab 353d b95a 303d d83b 503d
00000050: de7d 893e 7847 3c3e bfe0 413e b9f8 1e3e
00000060: 7ab5 2f3e c1d3 823e cd99 ec3d 47da bd3d
00000070: 80bc 6b3e 444b 3c3e 628e 6d3e 18cf 5b3e
00000080: 9673 363e b666 553e a483 243e 6af2 683e
00000090: 2c73 023e 68ab 513e 8860 3e3e 38d6 323e
000000a0: 8515 123e d5b9 3d3e 4a03 a83d 11d1 723e
000000b0: f30e 663e b58e 2b3e e561 4c3e c2e4 d43d
000000c0: 181a 773e cc33 3a3e b858 383e 1796 e73d
000000d0: 346b 903e 3524 823e 06a1 2c3e ea01 8d3d
000000e0: 65a2 1f3e ac82 073e c2b5 093e 9cc6 383e
000000f0: ca1f 5e3e 3da9 343e 4daf 0d3e a967 1f3e

fc.weight f4 [20, 64]
-0.021632016 0.019110039 0.03790106 0.033316553 -0.02073434 0.12380971 0.070925176 0.021550223
0.088639095 -0.017503276 0.08463395 0.11480114 -0.08857928 0.019260243 -0.08852258 -0.049909458
-0.07008098 0.115325496 -0.0034964234 0.12267582 0.020469755 -0.031177834 0.059672877 0.08927646
-0.111575365 -0.027547002 -0.042685047 0.0021106005 -0.08364396 -0.026108712 0.045431003 0.027775645
0.100807145 0.027910858 -0.03887205 -0.042905733 -0.006556213 -0.09863877 -0.06821461 -0.05367361
-0.11515482 0.011870921 -0.021434397 -0.008226424 0.010820448 -0.028258383 0.10234845 -0.011014685
-0.08082481 0.006581992 0.005939558 -0.029845774 0.09978044 -0.033401385 0.0965766 -0.069302484
-0.036690563 -0.0530933 -0.10233846 0.07576929 0.024773031 -0.12338166 0.0067263395 -0.056980222
0.06942043 0.074566334 -0.066355914 0.113946095 0.019940004 0.12465039 -0.084565505 -0.007380128
0.023773044 0.11033878 0.122689486 -0.004341066 0.11007695 -0.09532657 -0.06897211 -0.035992846
0.053793833 0.047680512 0.05327566 0.120227605 0.0046147853 -0.0454192 -0.07227813 -0.07549773
-0.0026456267 -0.06419042 0.104609564 0.023358196 0.059948146 -0.068081185 -0.07507834 -0.039851382
-0.073486835 -0.09055509 -0.09235169 0.0861361 -0.036083534 -0.018888175 0.0064728707 -0.03946747
0.054586828 0.023776412 -0.104677126 -0.046485484 -0.105123356 -0.11257543 -0.060070425 -0.034135044
0.005203992 0.0051906407 -0.10880019 0.008085042 -0.06387155 -0.02492407 -0.026950449 0.003214091
-0.011055946 -0.10172741 -0.031245261 -0.07099277 0.016421542 -0.005793363 0.008259058 -0.10628533
0.004422039 -0.09128855 0.0043209046 -0.07281639 0.123697504 0.04524462 -0.07966165 -0.12393728
0.057104334 -0.00067964196 0.118764654 0.059712917 0.014148012 0.10490604 0.06706518 0.049170762
-0.005249977 0.09326351 0.011729747 -0.09727515 0.042418033 0.09524684 0.02242501 -0.0371778
0.059697032 0.10544804 -0.031345442 0.034953535 -0.124079704 0.070781305 -0.11186352 0.032701656
-0.01956898 0.036767617 -0.10531521 0.049425483 0.08603829 -0.015495092 -0.073492825 0.034050792
0.05283439 0.085299715 0.0374472 0.096506685 -0.09419325 0.1228753 0.028587684 0.11488432
0.045312643 -0.046561494 -0.068379164 -0.106958225 0.06477581 -0.030241266 -0.0707528 -0.095162064
0.014588922 0.07190022 -0.11278629 -0.04287383 -0.0016688704 0.030946627 -0.003687188 0.123209834
0.024353504 0.106267616 -0.109395 0.11365017 0.10837795 0.11155634 -0.111567184 0.05255945
-0.067512035 0.0044136643 -0.07080223 -0.022316977 -0.046289057 -0.107586026 0.038928866 -0.0015579164
0.0004737079 -0.03770989 -0.005445078 0.046968848 0.042216808 0.099152625 -0.002977103 0.07183792
0.050714687 0.08408217 -0.04071936 0.021015331 0.046089336 0.023451 0.017511278 0.06894767
-0.05185178 -0.011554912 0.063680306 0.0013974309 0.061221242 -0.06583919 -0.1012847 -0.004613325
0.025118142 -0.059442356 -0.014087558 0.06591827 -0.03378661 -0.041804835 -0.10802893 0.12209582
0.06066467 0.00748758 0.11569399 0.014805436 0.05157779 -0.118714914 0.122206464 0.025303304
-0.015158802 0.0108895 0.11755891 -0.07102832 -0.034951076 0.03405796 -0.059921563 0.022473812
00000000: a035 b1bc a88c 9c3c 243e 1b3d f076 083d
00000010: 10db a9bc f28f fd3d 3841 913d 188a b03c
00000020: 6a88 b53d 0863 8fbc 9054 ad3d dc1c eb3d
00000030: 0e69 b5bd a8c7 9d3c 544b b5bd dc6d 4cbd
00000040: 9e86 8fbd c62f ec3d 4024 65bb 763d fb3d
00000050: 30b0 a73c a868 ffbc 8c6b 743d 94d6 b63d
00000060: a081 e4bd 40aa e1bc 84d6 2ebd 0052 0a3b
00000070: 864d abbd f0e1 d5bc dc15 3a3d c089 e33c
00000080: fa73 ce3d 50a5 e43c 4c38 1fbd ecbd 2fbd
00000090: 80d5 d6bb 2003 cabd 1ab4 8bbd dcd8 5bbd
000000a0: 4ad6 ebbd 407e 423c 3097 afbc 20c8 06bc
000000b0: 4048 313c 207e e7bc 109c d13d f076 34bc
000000c0: 7a87 a5bd c0ad d73b a0a0 c23b 207f f4bc
000000d0: b059 cc3d e4cf 08bd f4c9 c53d 76ee 8dbd
000000e0: d848 16bd 5c78 59bd d496 d1bd ee2c 9b3d
000000f0: d0f0 ca3c 86af fcbd a068 dc3b 1864 69bd
00000100: 4c2c 8e3d 3cb6 983d 9ce5 87bd 925c e93d
00000110: 3859 a33c b448 ff3d ae30 adbd 00d5 f1bb
00000120: b0bf c23c 4cf9 e13d a044 fb3d 803f 8ebb
00000130: 0670 e13d 943a c3bd 4041 8dbd 3c6d 13bd
00000140: ec56 5c3d a44c 433d 9437 5a3d e439 f63d
00000150: a037 973b 7c09 3abd 8e06 94bd 8e9e 9abd
00000160: 4062 2dbb 4476 83bd 8a3d d63d b059 bf3c
00000170: 308c 753d 266e 8bbd acc2 99bd 343b 23bd
00000180: 4480 96bd f274 b9bd e222 bdbd 2068 b03d
00000190: 54cc 13bd 60bb 9abc 601a d43b a4a8 21bd
000001a0: 7096 5f3d c0c6 c23c f660 d6bd 9067 3ebd
000001b0: ea4a d7bd f28d e6bd 680c 76bd 30d1 0bbd
000001c0: 4086 aa3b 4016 aa3b a2d2 debd 2077 043c
000001d0: 16cf 82bd 902d ccbc 30c7 dcbc 80a3 523b
000001e0: 0024 35bc 7656 d0bd 10f6 ffbc a864 91bd
000001f0: 7886 863c 40d6 bdbb 0051 073c 20ac d9bd
00000200: c0e6 903b 7ef5 babd 6096 8d3b c220 95bd
00000210: 1e55 fd3d 6c52 393d a625 a3bd d4d2 fdbd
00000220: 3ce6 693d 002a 32ba e23a f33d 8895 743d
00000230: 10cd 673c fad8 d63d 7859 893d 4867 493d
00000240: 0008 acbb f000 bf3d 202e 403c 3238 c7bd
00000250: 88be 2d3d c610 c33d a8b4 b73c c047 18bd
00000260: e084 743d 24f5 d73d 1464 00bd 702b 0f3d
00000270: 801d febd caf5 903d b418 e5bd 2cf2 053d
00000280: 204f a0bc a499 163d 80af d7bd 6072 4a3d
00000290: d834 b03d 20df 7dbc 6883 96bd d878 0b3d
000002a0: e068 583d 9eb1 ae3d 3c62 193d 4ca5 c53d
000002b0: 64e8 c0bd 0ca6 fb3d b830 ea3c 7848 eb3d
000002c0: c099 393d 44b7 3ebd 600a 8cbd ea0c dbbd
000002d0: 2ea9 843d 88bc f7bc d8e6 90bd 54e4 c2bd
000002e0: 6006 6f3c 6c40 933d 80fc e6bd 789c 2fbd
000002f0: 00be daba c883 fd3c c0a4 71bb 7055 fc3d
00000300: 0081 c73c d6a2 d93d 7c0a e0bd 6cc1 e83d
00000310: 42f5 dd3d a677 e43d 567d e4bd 9448 573d
00000320: c043 8abd 80a0 903b c200 91bd 18d2 b6bc
00000330: 9899 3dbd 1056 dcbd e073 1f3d 0033 ccba
00000340: 005c f839 b075 1abd a06c b2bb 6862 403d
00000350: 88eb 2c3d 8810 cb3d 801b 43bb c21f 933d
00000360: 34ba 4f3d 4633 ac3d 58c9 26bd 5828 ac3c
00000370: 2cc8 3c3d 501c c03c d073 8f3c 7034 8d3d
00000380: 8862 54bd d050 3dbc d26a 823d 002a b73a
00000390: 20c3 7a3d b2d6 86bd 5a6e cfbd 602b 97bb
000003a0: 90c4 cd3c d479 73bd 80cf 66bc 2800 873d
000003b0: d463 0abd 8c3b 2bbd 463e ddbd 600d fa3d
000003c0: 847b 783d 605a f53b f8f0 ec3d 8092 723c
000003d0: 3c43 533d ce20 f3bd 6247 fa3d e048 cf3c
000003e0: a05c 78bc e069 323c bac2 f03d 4c77 91bd
000003f0: dc28 0fbd 5c80 0b3d 5070 75bd 001b b83c

fc.bias f4 [20]
0.00014966726 0.08459738 -0.083426505 -4.553795e-05 0.10600528 -0.035698593 0.019922942 0.06316723
-0.042512193 0.093615904 0.10311599 -0.005827084 -0.11330414 0.08258323 0.10444537 -0.084001705
-0.02936934 -0.122761354 0.091809034 0.04015915
00000000: 00f0 1c39 6441 ad3d 84db aabd 0000 3fb8
00000010: 4c19 d93d b038 12bd 7035 a33c d25d 813d
00000020: 4421 2ebd b2b9 bf3d 7a2e d33d 20f1 bebb
00000030: 000c e8bd 6621 a93d 74e7 d53d 1609 acbd
00000040: f897 f0bc 4e6a fbbd 6006 bc3d ec7d 243d
